dense_model_100.pth (torch, 637471 bytes, 4 tensors)

dense1.weight f4 [200, 784]
0.031093875 0.050713357 0.038231645 0.09512987 0.08012524 0.06371753 0.029774 0.03452553
0.064942755 0.052046087 0.04836039 0.07970142 0.06388188 0.060858887 0.06776726 0.08192295
0.04710262 0.0698552 0.05347958 0.09447629 0.074793026 0.037604276 0.09358518 0.036965456
0.053398382 0.0876423 0.050083067 0.031868033 0.026667612 0.084921286 0.02583972 0.0497801
0.050280258 0.056813214 0.026562164 0.092009984 0.070932016 0.032510377 0.09205689 0.094396695
0.040888906 0.095120706 0.041971836 0.06906119 0.03442051 0.02706136 0.05536572 0.03668189
0.045394737 0.08900871 0.057115383 0.08466106 0.04318089 0.08128174 0.037449297 0.080202095
0.05622274 0.044893194 0.054294813 0.08182709 0.027091915 0.0713832 0.033418264 0.08000455
0.059759658 0.02745209 0.069331445 0.055757236 0.09299846 0.033947516 0.08456717 0.027942332
0.054026682 0.06240258 0.032751992 0.088135794 0.04870377 0.033035662 0.06321409 0.031243235
0.0295804 0.056310087 0.08315048 0.04371138 0.06936036 0.06329346 0.068905436 0.09192955
0.064755484 0.07349332 0.088243105 0.046249386 0.035969067 0.032191016 0.076241024 0.08486986
0.09067976 0.06396048 0.02933801 0.05129006 0.037660215 0.09211202 0.035464246 0.032939162
0.06016637 0.04702102 0.06952009 0.07343429 0.048831485 0.09325829 0.06534656 0.073483735
0.07238549 0.08839773 0.044968657 0.083582476 0.07075925 0.03437185 0.038762383 0.06432798
0.06579423 0.073342 0.0870383 0.035493452 0.0944756 0.055775892 0.026117908 0.06270815
0.0931886 0.051179513 0.049895663 0.07944282 0.058109257 0.035978004 0.06439299 0.09461777
0.09461177 0.029253932 0.054404303 0.087015055 0.09057312 0.04653822 0.07229911 0.03563353
0.061207596 0.094183974 0.036397383 0.059591513 0.03938059 0.033560026 0.04966721 -0.040239524
0.07636529 0.09356272 0.028608158 0.052807607 0.028645879 0.024451897 0.041120745 0.05497533
0.038207125 0.085597776 0.028632885 0.049347088 0.07285752 0.06363316 0.067451686 0.071650945
0.0466554 0.050831765 0.073899746 0.030082127 0.05504982 0.042939685 0.04018979 0.03172356
0.027228419 0.08060375 0.04196981 -0.050426662 -0.035336617 0.07158595 0.05152138 0.07532867
0.070283726 0.058428958 0.08316751 0.053650383 -0.087408155 -0.06415449 0.064529 0.08484198
0.09033383 0.029790988 0.09440361 0.084497415 0.09340071 0.035836678 0.057381094 0.052011076
0.038868047 0.07795699 0.049870208 0.09007801 0.08381221 0.06106326 0.03663407 -0.036625806
-0.059467662 0.07592851 0.05121769 0.093491234 0.045417883 0.07303536 0.030086117 -0.0946471
-0.08744786 -0.053351175 -0.06552538 0.06544972 0.04571395 0.042854786 0.07079628 0.048359815
0.08092317 0.050977666 0.048069034 0.06617283 0.055962324 0.06239574 0.057616867 0.07083528
0.08381824 0.09149126 -0.04747084 -0.041205008 0.030120675 0.026872847 0.036375675 0.039035667
0.076148674 0.05056832 0.056856114 -0.030466605 -0.048750937 -0.02817806 -0.027377205 0.04468693
0.07896032 0.055381853 0.08937573 0.056048587 0.07323672 0.08337825 0.04134674 0.07778866
00000000: 95b8 fe3c cfb8 4f3d c998 1c3d 73d3 c23d
00000010: b418 a43d 567e 823d 9be8 f33c a46a 0d3d
00000020: b500 853d 472e 553d 8b15 463d 803a a33d
00000030: 81d4 823d 2b47 793d 90c9 8a3d 38c7 a73d
00000040: adee 403d 3e10 8f3d 670d 5b3d c97c c13d
00000050: 162d 993d f106 1a3d 96a9 bf3d 1769 173d
00000060: 43b8 5a3d ce7d b33d e723 4d3d 0e88 023d
00000070: 0976 da3c 36eb ad3d d2ad d33c 38e6 4b3d
00000080: acf2 4d3d f9b4 683d e598 d93c bb6f bc3d
00000090: ce44 913d 9a29 053d 5388 bc3d 0e53 c13d
000000a0: 207b 273d a5ce c23d a9ea 2b3d f46f 8d3d
000000b0: 85fc 0c3d c9af dd3c 2ac7 623d c03f 163d
000000c0: d5ef 393d 334a b63d d2f1 693d c762 ad3d
000000d0: 72de 303d 0a77 a63d 6f64 193d ff40 a43d
000000e0: d149 663d ede1 373d 3d64 5e3d f694 a73d
000000f0: ddef dd3c 5b31 923d 97e1 083d 6dd9 a33d
00000100: 8bc6 743d 35e3 e03c a5fd 8d3d b361 643d
00000110: fa75 be3d 8d0c 0b3d 8d31 ad3d 51e7 e43c
00000120: 154b 5d3d d999 7f3d f426 063d 8a80 b43d
00000130: 9b7d 473d 6750 073d 6476 813d d0f1 ff3c
00000140: 9852 f23c 68a5 663d cd4a aa3d b40a 333d
00000150: ce0c 8e3d 00a0 813d 4b1e 8d3d 8f45 bc3d
00000160: 869e 843d aa83 963d cdb8 b43d ff6f 3d3d
00000170: 4d54 133d bada 033d 4124 9c3d 40d0 ad3d
00000180: 4fb6 b93d b6fd 823d 4456 f03c 8715 523d
00000190: 9941 1a3d 3aa5 bc3d f542 113d 37eb 063d
000001a0: 0371 763d 1d99 403d 8d60 8e3d b864 963d
000001b0: 8603 483d 34fe be3d 6bd4 853d a47e 963d
000001c0: d83e 943d de09 b53d 0e31 383d 4a2d ab3d
000001d0: 3aea 903d 7fc9 0c3d 4ec5 1e3d 63be 833d
000001e0: 20bf 863d 5534 963d 2341 b23d 9561 113d
000001f0: 6c7c c13d 4375 643d 39f5 d53c 216d 803d
00000200: aad9 be3d 9ca1 513d 655f 4c3d ebb2 a23d
00000210: f903 6e3d ac5d 133d 79e0 833d f6c6 c13d
00000220: d1c3 c13d f1a5 ef3c 0cd7 5e3d f334 b23d
00000230: 667e b93d dc9e 3e3d 8e11 943d 77f4 113d
00000240: d1b4 7a3d 87e3 c03d 6c15 153d 3b16 743d
00000250: 8b4d 213d 3d76 093d d86f 4b3d 33d2 24bd
00000260: 6865 9c3d d09d bf3d a85b ea3c ca4c 583d
00000270: c3aa ea3c 584f c83c 3a6e 283d d02d 613d
00000280: 137f 1c3d e34d af3d 838f ea3c 2c20 4a3d
00000290: 5336 953d 1a52 823d 1c24 8a3d bbbd 923d
000002a0: bc19 3f3d f834 503d c058 973d cb6e f63c
000002b0: ec7b 613d 86e1 2f3d 0d9e 243d 90f0 013d
000002c0: 220e df3c 9413 a53d 89e8 2b3d 308c 4ebd
000002d0: 21bd 10bd a89b 923d 1508 533d eb45 9a3d
000002e0: eaf0 8f3d 3453 6f3d ba53 aa3d 81c0 5b3d
000002f0: 0c03 b3bd 6e63 83bd c827 843d a2c1 ad3d
00000300: f100 b93d 3b0c f43c ae56 c13d fb0c ad3d
00000310: df48 bf3d 7bc9 123d 7008 6b3d 9109 553d
00000320: 1a34 1f3d eaa7 9f3d b444 4c3d d27a b83d
00000330: bca5 ab3d 781d 7a3d 9b0d 163d f104 16bd
00000340: 5d94 73bd 6880 9b3d a4c9 513d 5578 bf3d
00000350: 1a08 3a3d 9093 953d 2977 f63c 57d6 c1bd
00000360: dd17 b3bd c386 5abd 2c32 86bd 810a 863d
00000370: 8d3e 3b3d 8088 2f3d a4fd 903d f114 463d
00000380: 0cbb a53d f5cd 503d 09e4 443d 9f85 873d
00000390: c038 653d ad92 7f3d aaff 6b3d 1612 913d
000003a0: e6a8 ab3d c55f bb3d c970 42bd 95c6 28bd
000003b0: a2bf f63c 7224 dc3c a9fe 143d dde3 1f3d
000003c0: d6f3 9b3d ba20 4f3d f5e1 683d 1a95 f9bc
000003d0: 10af 47bd add5 e6bc 2946 e0bc a409 373d
000003e0: f3b5 a13d 15d8 623d 9f0a b73d 3493 653d
000003f0: 22fd 953d 37c2 aa3d 335b 293d a94f 9f3d

dense1.bias f4 [200]
-0.053580787 -0.054143608 -0.03219155 -0.08811671 0.0036657916 -0.039098974 -0.019792385 -0.049050696
-0.05766021 -0.06648889 -0.04085022 -0.06716 -0.093394965 -0.044813886 -0.04180643 0.00255942
-0.018652933 0.022132032 -0.009035823 -0.046618827 -0.044012424 -0.048183627 -0.023899574 -0.040071152
0.0015589896 -0.05454084 -0.07996626 -0.06202612 -0.047804203 -0.02590498 -0.07219806 -0.05073023
-0.09189994 -0.043909345 -0.09377779 -0.08041087 -0.09111365 -0.0091367755 -0.08382819 -0.048594944
-0.039082557 -0.034933902 -0.050247394 -0.07328778 -0.036275797 -0.009443048 -0.065644346 -0.04783965
-0.009818545 -0.03611496 -0.05660361 -0.090763174 -0.06570087 -0.041003663 -0.05130085 -0.038974114
-0.0035947852 -0.040541276 -0.056597833 -0.07190386 0.036846347 -0.041493684 -0.05743888 -0.029461907
-0.07914282 -0.029260408 -0.042375345 -0.053727582 -0.034603205 0.002371795 -0.03680141 -0.051626075
-0.07916716 -0.035869785 -0.038401205 -0.0154448915 -0.007090361 -0.05501673 -0.060521338 -0.047297835
-0.054353394 -0.022151938 -0.07054305 -0.017112577 -0.041471314 -0.002521734 -0.04118476 -0.014258362
-0.03526226 -0.008411627 -0.0927194 -0.09175087 -0.09253365 -0.018867597 -0.045757607 -0.07519603
-0.030123992 -0.038071796 -0.04139851 -0.04645977 -0.0390042 -0.07685746 -0.08340544 -0.015690839
-0.014361638 -0.02222 -0.035649925 -0.06997324 -0.079912215 -0.053627554 -0.085937195 -0.048905227
0.019364726 -0.010536214 -0.022341281 -0.037351966 0.05588098 -0.066814624 -0.09290002 -0.06694581
-0.025258234 -0.07107855 -0.04199559 0.013243256 0.008784321 -0.06935826 -0.07257334 -0.03843495
-0.07713913 -0.081425816 -0.025934197 -0.07259743 -0.03497011 -0.09263997 -0.0301833 -0.071540624
-0.084386066 0.02682596 -0.024343414 -0.044365592 -0.053455472 -0.053157154 -0.060783274 0.02976624
0.026398767 -0.068419605 -0.08805359 -0.0688473 0.068625174 -0.08107906 -0.02693478 -0.03121397
-0.028612114 -0.036776092 -0.025521366 -0.034947265 -0.055427417 -0.042088624 -0.045811955 -0.089468166
-0.076944895 -0.03098303 -0.030609107 -0.025030252 -0.038931377 -0.050017525 -0.078936145 -0.032845702
-0.013602411 -0.045564093 -0.028446712 -0.044599 -0.02567508 -0.03194716 0.031778604 -0.018364627
-0.017333373 -0.080526404 -0.08155432 -0.058825497 -0.09020176 -0.052513152 -0.05302169 -0.0856474
-0.0783857 -0.089010864 -0.051001124 -0.055535432 -0.087069385 -0.009444906 -0.044324923 -0.031743992
-0.044980574 -0.05060705 -0.03717267 -0.040915016 -0.09017444 -0.036418293 -0.05497351 -0.0872536
00000000: 8777 5bbd b0c5 5dbd 49db 03bd 8976 b4bd
00000010: c73d 703b 3f26 20bd a423 a2bc 62e9 48bd
00000020: 1d2d 6cbd 542b 88bd 8f52 27bd 2f8b 89bd
00000030: dc45 bfbd c48e 37bd 383d 2bbd f1bb 273b
00000040: 09ce 98bc 3c4e b53c fd0a 14bc 62f3 3ebd
00000050: 5f46 34bd 325c 45bd 0ac9 c3bc a621 24bd
00000060: 0357 cc3a 3766 5fbd 5ac5 a3bd 1a0f 7ebd
00000070: 57ce 43bd ae36 d4bc 94dc 93bd 80ca 4fbd
00000080: 0936 bcbd 49da 33bd 920e c0bd 74ae a4bd
00000090: cb99 babd 6ab2 15bc 1dae abbd 7e0b 47bd
000000a0: 0815 20bd da16 0fbd 36d0 4dbd e717 96bd
000000b0: ee95 14bd 04b7 1abc 8b70 86bd 82f3 43bd
000000c0: f6dd 20bc 48ed 13bd 30d9 67bd 0be2 b9bd
000000d0: 2d8e 86bd 75f3 27bd d720 52bd 52a3 1fbd
000000e0: 7d96 6bbb 9c0e 26bd 21d3 67bd 5542 93bd
000000f0: 32ec 163d 48f5 29bd 0845 6bbd 195a f1bc
00000100: a115 a2bd 86b3 efbc c591 2dbd 7411 5cbd
00000110: 17bc 0dbd 1e70 1b3b 13bd 16bd dd75 53bd
00000120: 6422 a2bd 32ec 12bd 954a 1dbd 920c 7dbc
00000130: 4256 e8bb 3959 61bd 39e5 77bd 60bb 41bd
00000140: aaa1 5ebd fb77 b5bc e078 90bd ad2f 8cbc
00000150: d3dd 29bd ad43 25bb 5ab1 28bd e89b 69bc
00000160: 296f 10bd ecd0 09bc abe3 bdbd e1e7 bbbd
00000170: 4882 bdbd 3890 9abc 546c 3bbd 6000 9abd
00000180: 97c6 f6bc 2cf1 1bbd 7c91 29bd 9a4c 3ebd
00000190: dec2 1fbd 7267 9dbd 79d0 aabd 138a 80bc
000001a0: 134d 6bbc b806 b6bc a805 12bd 214e 8fbd
000001b0: 04a9 a3bd 91a8 5bbd d7ff afbd d950 48bd
000001c0: c6a2 9e3c 16a0 2cbc 1005 b7bc 60fe 18bd
000001d0: 74e3 643d 1bd6 88bd 5e42 bebd e31a 89bd
000001e0: 5bea cebc a191 91bd 9103 2cbd 3efa 583c
000001f0: 1dec 0f3c b40b 8ebd 55a1 94bd f76d 1dbd
00000200: 1ffb 9dbd 94c2 a6bd f473 d4bc f6ad 94bd
00000210: d13c 0fbd 06ba bdbd f842 f7bc e483 92bd
00000220: 9ad2 acbd 1ec2 db3c d76b c7bc b2b8 35bd
00000230: 20f4 5abd 51bb 59bd e2f7 78bd 54d8 f33c
00000240: 3a42 d83c 941f 8cbd 7155 b4bd d0ff 8cbd
00000250: 5b8b 8c3d c70c a6bd 54a6 dcbc 71b4 ffbc
00000260: f463 eabc 87a2 16bd 2f12 d1bc dd24 0fbd
00000270: dc07 63bd 1f65 2cbd 51a5 3bbd 163b b7bd
00000280: 4995 9dbd 20d0 fdbc f3bf fabc 3e0c cdbc
00000290: 8276 1fbd 2ddf 4cbd 46a9 a1bd 3789 06bd
000002a0: a6dc 5ebc 6aa1 3abd 1409 e9bc 71ad 36bd
000002b0: 8c54 d2bc 06db 02bd 482a 023d 6a71 96bc
000002c0: b8fe 8dbc 07eb a4bd f405 a7bd 01f3 70bd
000002d0: b3bb b8bd 0818 57bd 462d 59bd e767 afbd
000002e0: af88 a0bd 544b b6bd 8ee6 50bd 1f79 63bd
000002f0: 6f51 b2bd cfbe 1abc 0d8e 35bd fd05 02bd
00000300: 8d3d 38bd 5749 4fbd 5f42 18bd 8196 27bd
00000310: 60ad b8bd 592b 15bd e72b 61bd 04b2 b2bd

dense2.weight f4 [10, 200]
-0.11204894 -0.12653969 -0.08292752 -0.057377934 0.052281816 -0.021959007 -0.0004965884 0.021281583
-0.024410173 -0.09997923 0.03537341 0.006244277 0.077015474 -0.008325706 0.10563879 0.069950275
0.04030636 -0.12964292 -0.22180398 0.0007494169 -0.0738009 -0.06482464 0.000191236 -0.033231195
0.005577818 0.088095635 0.082774825 0.024706272 -0.0127037 0.041682273 0.0776805 -0.0034438593
-0.019366033 -0.1067336 -0.04490408 -0.005720231 0.031376615 -0.004389125 -0.02408343 0.033275325
0.062363345 -0.029417573 0.11290176 -0.077358894 -0.026332317 0.0037403286 0.09749524 -0.0024726815
0.0020798203 -0.041424774 -0.022236839 -0.016238205 -0.14133447 -0.043985866 -0.017684897 0.002604642
0.004498626 0.07550134 0.07800074 -0.05225272 0.070002586 -0.0059827096 -0.10868524 0.068907715
0.035919804 -0.0003796605 -0.124062076 -0.02896919 -0.031042244 0.010101257 -0.016455425 -0.023798065
0.06250687 0.05520951 -0.025261387 0.014981885 0.12323965 -0.037070278 0.01219484 0.034728356
-0.056043945 0.09568464 -0.009987289 0.026922608 -0.011693806 0.047002897 -0.033953264 0.067569815
-0.12097046 0.022902796 0.0009169507 -0.061465368 -0.11592128 -0.08622242 -0.047711626 -0.066488214
0.0069570206 -0.0071383505 0.06792815 0.010950331 0.008535963 0.07914513 -0.05902552 0.06125289
0.05075908 0.035852574 -0.045797657 -0.0087563135 -0.013935066 0.026766555 0.020715615 0.07633663
0.18312702 0.09540667 0.058237784 -0.07395809 0.10190891 0.079818614 -0.08036831 0.10005036
-0.017846916 -0.07027282 0.00088307814 -0.11316861 0.055283196 0.010352041 -0.057859313 0.016100137
-0.043997776 -0.019555593 -0.03506395 0.07496545 -0.016656943 0.05174363 -0.012826711 -0.09289955
-0.0845673 0.05688528 -0.013896858 0.043467756 0.003302969 0.052749194 0.026741438 -0.10824139
0.11072526 -0.05008523 -0.104836 0.052023873 0.23448868 -0.09271219 -0.01154116 -0.09206454
-0.026790079 -0.023630446 0.004297908 0.05186551 0.001756066 0.050234605 0.06168356 -0.09198961
0.0073707956 -0.00014265027 0.04050691 -0.013335284 0.09489326 -0.022211999 -0.02244185 0.01510977
-0.024438202 -0.026021888 0.0043828185 0.077260874 -0.047263358 -0.013506417 -0.10517112 -0.08575459
0.012973591 -0.058423284 -0.025551373 -0.037413847 0.07360494 0.04543047 -0.082440406 0.04646887
-0.019658612 0.05935999 -0.056871455 -0.010870509 0.034823194 0.051222682 -0.0342406 0.08408683
-0.009722695 0.07265056 -0.096899 0.08631601 -0.02110432 0.07655881 -0.018429475 0.10651617
0.0017506016 0.058523506 -0.0041366112 -0.0015347996 0.02899757 -0.114247344 -0.05986108 0.017865341
-0.035870686 0.1221215 0.12082782 0.10649456 0.07068741 -0.03054864 -0.044687048 -0.02690731
-0.0036693278 0.08204714 0.021897564 -0.0028252972 -0.012888124 0.04497202 -0.05794718 0.0610743
-0.033118904 -0.034562945 -0.07722149 0.07398772 -0.016151829 0.017867832 -0.032043915 -0.025434224
-0.100460075 -0.07660621 0.044936918 0.048591267 -0.018100029 0.05375238 -0.06726483 0.0037422315
-0.03152643 0.0044210227 0.034764137 -0.06266413 -0.008664899 0.08296943 -0.010865242 0.006968341
0.016454542 0.0027240107 -0.032916393 -0.049481843 -0.06393751 0.06606262 0.035602555 0.012106449
00000000: ea79 e5bd 9f93 01be e7d5 a9bd 2005 6bbd
00000010: 7525 563d 60e3 b3bc 7c2d 02ba b756 ae3c
00000020: d8f7 c7bc e9c1 ccbd b5e3 103d cb9c cc3b
00000030: 4aba 9d3d 8b68 08bc 2659 d83d 1742 8f3d
00000040: 4818 253d 1dc1 04be 9520 63be 8474 443a
00000050: ed24 97bd c8c2 84bd 8686 4839 6f1d 08bd
00000060: 21c6 b63b 7c6b b43d d985 a93d cf64 ca3c
00000070: 2e23 50bc 08bb 2a3d f416 9f3d 5fb2 61bb
00000080: 84a5 9ebc 2597 dabd 57ed 37bd c770 bbbb
00000090: c484 003d a6d2 8fbb 9d4a c5bc b54b 083d
000000a0: b570 7f3d 1ffd f0bc 0a39 e73d 576e 9ebd
000000b0: dfb6 d7bc 4d20 753b 96ab c73d b60c 22bb
000000c0: 984d 083b 06ad 29bd 082a b6bc fc05 85bc
000000d0: fcb9 10be 862a 34bd ebdf 90bc a4b2 2a3b
000000e0: 3669 933b 72a0 9a3d dabe 9f3d f306 56bd
000000f0: 845d 8f3d 9b0a c4bb 5e96 debd 7d1f 8d3d
00000100: a520 133d 2b0d c7b9 4214 febd cb50 edbc
00000110: 4e4c febc be7f 253c 87cd 86bc 29f4 c2bc
00000120: 9a03 803d 5e23 623d f8f0 cebc 9576 753c
00000130: 1265 fc3d 01d7 17bd decc 473c 523f 0e3d
00000140: 568e 65bd 4ff6 c33d baa1 23bc cd8c dc3c
00000150: 6197 3fbc 1c86 403d 9412 0bbd 0b62 8a3d
00000160: 5cbf f7bd a59e bb3c 855f 703a 1cc3 7bbd
00000170: 2368 edbd 6195 b0bd 446d 43bd f92a 88bd
00000180: b8f7 e33b d3e8 e9bb ea1d 8b3d 0469 333c
00000190: 6cda 0b3c d816 a23d bec4 71bd 4fe4 7a3d
000001a0: c1e8 4f3d 26da 123d 5396 3bbd a476 0fbc
000001b0: e74f 64bc 8945 db3c cbb3 a93c 6156 9c3d
000001c0: a685 3b3e 9264 c33d be8a 6e3d 5777 97bd
000001d0: 9eb5 d03d f177 a33d 2498 a4bd 34e7 cc3d
000001e0: b233 92bc 32eb 8fbd 5f7e 673a f2c4 e7bd
000001f0: a270 623d 9b9b 293c e3fd 6cbd 6fe4 833c
00000200: 0337 34bd 0d33 a0bc 379f 0fbd 7c87 993d
00000210: 2474 88bc 21f1 533d 2027 52bc 1f42 bebd
00000220: 9f31 adbd 8a00 693d a6af 63bc 3f0b 323d
00000230: a076 583b 8a0f 583d dc10 db3c a9ad ddbd
00000240: edc3 e23d 2c26 4dbd 42b4 d6bd fc16 553d
00000250: cd1d 703e e3df bdbd 2217 3dbc 558c bcbd
00000260: de76 dbbc a394 c1bc 77d5 8c3b ee70 543d
00000270: cc2b e63a cdc2 4d3d e7a7 7c3d 0c65 bcbd
00000280: b786 f13b 6494 15b9 93ea 253d 3c7c 5abc
00000290: 6657 c23d f0f5 b5bc f8d7 b7bc f88e 773c
000002a0: a032 c8bc db2b d5bc bf9d 8f3b f33a 9e3d
000002b0: 3997 41bd 054a 5dbc f563 d7bd 1aa0 afbd
000002c0: 2f8f 543c 414d 6fbd 1d51 d1bc 433f 19bd
000002d0: 30be 963d 4d15 3a3d 84d6 a8bd 2456 3e3d
000002e0: 190b a1bc 7623 733d 0bf2 68bd 381a 32bc
000002f0: c4a2 0e3d e0ce 513d df3f 0cbd b735 ac3d
00000300: f04b 1fbc d1c9 943d fc72 c6bd 73c6 b03d
00000310: f8e2 acbc deca 9c3d 69f9 96bc 2625 da3d
00000320: 7174 e53a 58b6 6f3d 698c 87bb 542b c9ba
00000330: 508c ed3c 83fa e9bd e430 75bd 565a 923c
00000340: 24ed 12bd d61a fa3d 9374 f73d d219 da3d
00000350: 90c4 903d 2441 fabc c409 37bd b86c dcbc
00000360: 1b79 70bb 5508 a83d 8562 b33c 9f28 39bb
00000370: b628 53bc 9534 383d 065a 6dbd 0c29 7a3d
00000380: b0a7 07bd e091 0dbd 4d26 9ebd e086 973d
00000390: d750 84bc 8f5f 923c 7b40 03bd 6f5b d0bc
000003a0: 03be cdbd b7e3 9cbd c60f 383d a307 473d
000003b0: 8346 94bc 752b 5c3d 25c2 89bd 3a40 753b
000003c0: dc21 01bd 3ade 903b d764 0e3d 0d56 80bd
000003d0: 38f7 0dbc e0eb a93d 2104 32bc ae56 e43b
000003e0: adcb 863c 5185 323b 57d3 06bd 79ad 4abd
000003f0: abf1 82bd d74b 873d fcd3 113d 215a 463c

dense2.bias f4 [10]
-0.061166275 -0.091588505 0.030321943 -0.013467029 -0.009037461 -0.025517803 -0.055946056 -0.026591321
-0.0054502185 0.11290363
00000000: 7d89 7abd c192 bbbd b965 f83c d0a4 5cbc
00000010: dc11 14bc b60a d1bc b127 65bd 0bd6 d9bc
00000020: bf97 b2bb 053a e73d
